{"class_name": "Model", "config": {"name": "model", "layers": [{"name": "input0", "class_name": "InputLayer", "config": {"batch_input_shape": [null, 20, 20, 1], "dtype": "float32", "sparse": false, "name": "input0"}, "inbound_nodes": []}, {"name": "conv1", "class_name": "Conv2D", "config": {"name": "conv1", "trainable": true, "dtype": "float32", "filters": 18, "kernel_size": [5, 5], "strides": [1, 1], "padding": "same", "data_format": "channels_last", "dilation_rate": [1, 1], "activation": "relu", "use_bias": true, "kernel_initializer": {"class_name": "GlorotUniform", "config": {"seed": null, "dtype": "float32"}}, "bias_initializer": {"class_name": "Zeros", "config": {"dtype": "float32"}}, "kernel_regularizer": null, "bias_regularizer": null, "activity_regularizer": null, "kernel_constraint": null, "bias_constraint": null}, "inbound_nodes": [[["input0", 0, 0, {}]]]}, {"name": "pool1", "class_name": "MaxPooling2D", "config": {"name": "pool1", "trainable": true, "dtype": "float32", "pool_size": [2, 2], "padding": "valid", "strides": [2, 2], "data_format": "channels_last"}, "inbound_nodes": [[["conv1", 0, 0, {}]]]}, {"name": "conv2", "class_name": "Conv2D", "config": {"name": "conv2", "trainable": true, "batch_input_shape": [null, 20, 20], "dtype": "float32", "filters": 26, "kernel_size": [5, 5], "strides": [1, 1], "padding": "same", "data_format": "channels_last", "dilation_rate": [1, 1], "activation": "relu", "use_bias": true, "kernel_initializer": {"class_name": "GlorotUniform", "config": {"seed": null, "dtype": "float32"}}, "bias_initializer": {"class_name": "Zeros", "config": {"dtype": "float32"}}, "kernel_regularizer": null, "bias_regularizer": null, "activity_regularizer": null, "kernel_constraint": null, "bias_constraint": null}, "inbound_nodes": [[["pool1", 0, 0, {}]]]}, {"name": "pool2", "class_name": "MaxPooling2D", "config": {"name": "pool2", "trainable": true, "dtype": "float32", "pool_size": [2, 2], "padding": "valid", "strides": [2, 2], "data_format": "channels_last"}, "inbound_nodes": [[["conv2", 0, 0, {}]]]}, {"name": "conv3", "class_name": "Conv2D", "config": {"name": "conv3", "trainable": true, "batch_input_shape": [null, 20, 20], "dtype": "float32", "filters": 24, "kernel_size": [5, 5], "strides": [1, 1], "padding": "same", "data_format": "channels_last", "dilation_rate": [1, 1], "activation": "relu", "use_bias": true, "kernel_initializer": {"class_name": "GlorotUniform", "config": {"seed": null, "dtype": "float32"}}, "bias_initializer": {"class_name": "Zeros", "config": {"dtype": "float32"}}, "kernel_regularizer": null, "bias_regularizer": null, "activity_regularizer": null, "kernel_constraint": null, "bias_constraint": null}, "inbound_nodes": [[["pool2", 0, 0, {}]]]}, {"name": "pool3", "class_name": "MaxPooling2D", "config": {"name": "pool3", "trainable": true, "dtype": "float32", "pool_size": [2, 2], "padding": "valid", "strides": [2, 2], "data_format": "channels_last"}, "inbound_nodes": [[["conv3", 0, 0, {}]]]}, {"name": "flatten", "class_name": "Flatten", "config": {"name": "flatten", "trainable": true, "dtype": "float32", "data_format": "channels_last"}, "inbound_nodes": [[["pool3", 0, 0, {}]]]}, {"name": "fc1", "class_name": "Dense", "config": {"name": "fc1", "trainable": true, "dtype": "float32", "units": 144, "activation": "relu", "use_bias": true, "kernel_initializer": {"class_name": "GlorotUniform", "config": {"seed": null, "dtype": "float32"}}, "bias_initializer": {"class_name": "Zeros", "config": {"dtype": "float32"}}, "kernel_regularizer": null, "bias_regularizer": null, "activity_regularizer": null, "kernel_constraint": null, "bias_constraint": null}, "inbound_nodes": [[["flatten", 0, 0, {}]]]}, {"name": "fc2", "class_name": "Dense", "config": {"name": "fc2", "trainable": true, "dtype": "float32", "units": 36, "activation": "softmax", "use_bias": true, "kernel_initializer": {"class_name": "GlorotUniform", "config": {"seed": null, "dtype": "float32"}}, "bias_initializer": {"class_name": "Zeros", "config": {"dtype": "float32"}}, "kernel_regularizer": null, "bias_regularizer": null, "activity_regularizer": null, "kernel_constraint": null, "bias_constraint": null}, "inbound_nodes": [[["fc1", 0, 0, {}]]]}], "input_layers": [["input0", 0, 0]], "output_layers": [["fc2", 0, 0]]}, "keras_version": "2.2.4-tf", "backend": "tensorflow"}